…
[scale] after  — benign-train mean=-0.000000, std=0.965307
[scale] after  — X_test       mean=0.6532, std=8.2328  (attack samples are out-of-distribution → expected)

======================================================================
SECTION 3 · AUTOENCODER ARCHITECTURE
======================================================================
  Model: "autoencoder"
┏━━━━━━━━━━━━━━━━━━━━━━━━━━━━━━━━━┳━━━━━━━━━━━━━━━━━━━━━━━━┳━━━━━━━━━━━━━━━┓
┃ Layer (type)                    ┃ Output Shape           ┃       Param # ┃
┡━━━━━━━━━━━━━━━━━━━━━━━━━━━━━━━━━╇━━━━━━━━━━━━━━━━━━━━━━━━╇━━━━━━━━━━━━━━━┩
│ input (InputLayer)              │ (None, 44)             │             0 │
├─────────────────────────────────┼────────────────────────┼───────────────┤
│ enc_dense_32 (Dense)            │ (None, 32)             │         1,440 │
├─────────────────────────────────┼────────────────────────┼───────────────┤
│ enc_bn_32 (BatchNormalization)  │ (None, 32)             │           128 │
├─────────────────────────────────┼────────────────────────┼───────────────┤
│ enc_drop_32 (Dropout)           │ (None, 32)             │             0 │
├─────────────────────────────────┼────────────────────────┼───────────────┤
│ enc_dense_16 (Dense)            │ (None, 16)             │           528 │
├─────────────────────────────────┼────────────────────────┼───────────────┤
│ enc_bn_16 (BatchNormalization)  │ (None, 16)             │            64 │
├─────────────────────────────────┼────────────────────────┼───────────────┤
│ enc_drop_16 (Dropout)           │ (None, 16)             │             0 │
├─────────────────────────────────┼────────────────────────┼───────────────┤
│ bottleneck (Dense)              │ (None, 8)              │           136 │
├─────────────────────────────────┼────────────────────────┼───────────────┤
│ dec_dense_16 (Dense)            │ (None, 16)             │           144 │
├─────────────────────────────────┼────────────────────────┼───────────────┤
│ dec_bn_16 (BatchNormalization)  │ (None, 16)             │            64 │
├─────────────────────────────────┼────────────────────────┼───────────────┤
│ dec_dense_32 (Dense)            │ (None, 32)             │           544 │
├─────────────────────────────────┼────────────────────────┼───────────────┤
│ dec_bn_32 (BatchNormalization)  │ (None, 32)             │           128 │
├─────────────────────────────────┼────────────────────────┼───────────────┤
│ reconstruction (Dense)          │ (None, 44)             │         1,452 │
└─────────────────────────────────┴────────────────────────┴───────────────┘
 Total params: 4,628 (18.08 KB)
 Trainable params: 4,436 (17.33 KB)
 Non-trainable params: 192 (768.00 B)


======================================================================
SECTION 4 · AUTOENCODER TRAINING (benign-only)
======================================================================
Epoch 1/100
241/241 - 1s - 6ms/step - loss: 0.7325 - val_loss: 0.5133 - learning_rate: 0.0010
…
